data.pth (torch, 5249 bytes, 6 tensors)

l1.weight f4 [8, 54]
00000000: cd24 b33d c1c5 133f 4435 b03e 4742 86be
00000010: 9731 a6bd fe5b 723f 4d19 bc3e cb35 873e
00000020: a7a1 233f 2b83 cc3e b3ae 92be e775 47be
00000030: c8aa 5e3e 7ec6 2bbe 7507 bb3e 1496 b3be
00000040: f10e c4be f93a 3f3f f777 dabe 328f 29bf
00000050: 4b67 753e c35c 2bbf 4e30 28bf f2d6 0bbf
00000060: d48d 633e ec68 90be fb03 57be e0a2 ce3e
00000070: 9d79 67bd 4a72 a43e 8a21 323f dc96 1abd
00000080: 09e8 90bd d2f6 b83e 52cf 113f 7795 45be
00000090: a790 afbc 6cea 483f c75e c53e 600e 643e
000000a0: b385 213f 994f ffbe 9a7c 36be 75dd ce3e
000000b0: 7a1f 823e 7556 f63e c276 363e 5658 da3c
000000c0: 353c e3bd 8cb6 c7be edb8 bdbe 93db 80be
000000d0: bd9c 5d3e 9a87 933e 6e93 1d3f 1028 1c3f
000000e0: 831e 8abe eaa7 343e 3ea2 51bd a27c 47be
000000f0: 4494 26be ac95 58be a029 e4be 8c95 3cbe
00000100: 355a 5a3e cdf6 b2bd 007b 64be bc44 53be
00000110: 555e b33e 579f a6bc 01db 4e3e 03cb 20be
00000120: 554f 81be a5b0 003e 0e91 c73e 167f 173e
00000130: 8039 863e 6647 263e 5530 12be 92f8 6f3d
00000140: 8a05 38be 4e12 083f 8428 5fbe 30e4 a43e
00000150: f9a4 83be d9c6 91be 8a47 9c3e ed6e a4be
00000160: 6394 023f e47f 05bd a778 2bbe 4d2d cdbe
00000170: 82b8 8bbd 9d28 0cbe 2167 c4bd 58df b4be
00000180: 0ac1 b2bd 1985 9b3e 28d5 8ebe 9ba7 013f
00000190: cf0a 793f 0b5a da3e 211c 5d3e fd14 a1be
000001a0: 9873 41be 620d 78be 2bc7 39be aea2 4f3e
000001b0: 5937 be3e 80ad 2f3e fa46 363e 470c eb3e
000001c0: d964 d23d 454b c5bd 1613 583e 6d88 023e
000001d0: 006d 5bbe 79ec 693d b3a1 023f a909 06bc
000001e0: 16e4 acbd 3119 e8bd 3df7 4e3e 2ce3 f7bd
000001f0: c145 d03e e642 60be f477 853d 4cf0 e23e
00000200: 52ed b33e 998d 253f 9e4b 153f eb28 9f3e
00000210: 110b 813d 0344 973e 182e 3ebe fb02 e63d
00000220: 9c24 c23c d6bb d53d ff47 1dbe 0cb7 69bd
00000230: f8e0 103e 61cd e2bc 3867 113e 4214 61be
00000240: f52f abbd 9233 cfbd 9c0e 723e c75c 833d
00000250: 59a6 20be 2c34 29be c33a d7bd ee13 e33d
00000260: 1efc 733b 2118 7a3e 35e6 053f 6fe7 053e
00000270: dd02 953e 5e82 3fbd 6721 80be caa1 afbd
00000280: 98d4 073e b41f be3e e4c2 ea3e 31af 21be
00000290: 600a e83e b81d d03e 2c5c 333f e8bf 2cbf
000002a0: 1c6b c93e 8ca1 053f db84 a93e 67b1 063f
000002b0: f831 103f 4515 593d a1dc bb3e 97e9 f3bd
000002c0: f002 c1bd 69af b63d 24a9 b53e 82c3 2cbf
000002d0: d186 b13e d08a 3d3f cbbe 483e 50b5 203f
000002e0: 9d1d 313f 6f0c e33e cc8a dd3e bbe2 a83e
000002f0: 9956 f33d 6e29 08bf f511 5f3d 159f b0be
00000300: 662e 01bf 1efd 88bc c3b2 683e fb03 143f
00000310: 1b6c 33be b0f7 3cbd 4abe 3bbd 6bcf 823e
00000320: 6380 053f 9a33 ad3e f7fa 14bf 3404 393e
00000330: bf91 c6bb 8204 f1bd e543 983e 3f38 1ebe
00000340: 7d63 183f 314d d23e dfff 593e fc92 913e
00000350: 1771 043e d51f 313e 4c01 d23e 8e11 043f
00000360: 2beb 4abe 0793 de3e f023 8dbe b3e9 ac3e
00000370: 5874 a03d 43c3 7f3e 9199 d0bc 10b3 b4bd
00000380: a30f 1ebf 25e4 17be 882c f13e 1cf4 fbbc
00000390: 1d1e eabd 2945 b4be 9f50 953e 0e55 7c3d
000003a0: b684 983e 98a4 643e db64 4abe 0fca 2b3f
000003b0: 3928 4dbe 9151 0f3f a19c 0a3f 525d c23e
000003c0: 6056 5dbc c692 bb3e 948b 86be 128e 0a3f
000003d0: db4c b7bd 2e91 de3e 8cfa a53e f4c8 4fbe
000003e0: 47c0 8cbd 53d1 f5bd 7eb6 053f 18b0 8d3d
000003f0: d0d4 99be 5a8c bcbe 86d0 37be c83b 0ebe
0.087472536 0.57723624 0.34415638 -0.2622244 -0.08114927 0.9467162 0.36738053 0.26408228
0.63918537 0.39943823 -0.2864891 -0.1947857 0.21744835 -0.16774938 0.36529127 -0.35075438
-0.3829265 0.7469936 -0.4266965 -0.66234124 0.23965184 -0.6693842 -0.6569871 -0.54624856
0.22222072 -0.2820505 -0.20997612 0.4035864 -0.056512464 0.32118446 0.69582427 -0.037741527
-0.07075507 0.3612581 0.5695697 -0.19295298 -0.02143128 0.784827 0.38548872 0.22271109
0.63094634 -0.49865416 -0.17820969 0.40403333 0.2541464 0.48112836 0.1781874 0.02665345
-0.11095468 -0.3900646 -0.3705515 -0.25167522 0.21641822 0.28814393 0.61553085 0.6099863
-0.26976404 0.17642179 -0.051180117 -0.19481137 -0.16267496 -0.21150845 -0.44563007 -0.18416423
0.21323474 -0.0873848 -0.22312546 -0.20631689 0.35032907 -0.020339651 0.20200731 -0.15702443
-0.25255838 0.12567385 0.38977855 0.14794573 0.26215744 0.16238174 -0.1427625 0.058586664
-0.17970863 0.5315293 -0.21792799 0.32205343 -0.25711802 -0.2847202 0.3052333 -0.3211588
0.5100767 -0.03259267 -0.16745244 -0.40073624 -0.068223014 -0.13687368 -0.09589983 -0.35326648
-0.087282255 0.30374983 -0.27897 0.5064637 0.9728212 0.42646822 0.21592762 -0.31461325
-0.18891752 -0.24223855 -0.18142383 0.20276901 0.37151602 0.17156029 0.17800513 0.45907804
0.102731414 -0.09633497 0.2110103 0.12747355 -0.21428299 0.057110284 0.51027983 -0.008181014
-0.084419414 -0.1133293 0.20211501 -0.121038765 0.40678218 -0.2190052 0.0651702 0.44323957
0.35142 0.64669186 0.5831851 0.31085905 0.06300939 0.29544076 -0.18572271 0.11231037
0.023699097 0.104362175 -0.15359496 -0.057059333 0.14148319 -0.027685823 0.14199531 -0.21980384
-0.083587565 -0.10117258 0.23638386 0.0641418 -0.15688457 -0.16523808 -0.10509255 0.11087786
0.003722913 0.24423267 0.52304393 0.13076566 0.29103747 -0.046755187 -0.25025484 -0.08575781
0.13264692 0.37133563 0.45851815 -0.15789486 0.45320415 0.40647674 0.7006252 -0.67480326
0.3933953 0.52199626 0.33109173 0.52614444 0.56326246 0.0529988 0.36691764 -0.11909788
-0.094243884 0.089201756 0.35480607 -0.6748582 0.3467317 0.74039936 0.19604032 0.6277666
0.6918581 0.44345424 0.43269956 0.32985482 0.118817516 -0.53188217 0.054460485 -0.3449637
-0.50461423 -0.016722258 0.22724442 0.57818574 -0.17521708 -0.04613465 -0.04583577 0.25548872
0.5214903 0.3382843 -0.5819544 0.1806801 -0.0060598548 -0.11768438 0.297393 -0.15451144
0.5952681 0.41074517 0.21289013 0.28432453 0.12933765 0.17297299 0.41016614 0.51589286
-0.19816272 0.43471548 -0.2756648 0.33772048 0.07834691 0.2497683 -0.025463851 -0.08823216
-0.6174261 -0.14833124 0.47104287 -0.030756049 -0.11431525 -0.35209015 0.29163072 0.061604552
0.2978875 0.22328413 -0.19765036 0.6710519 -0.20034875 0.55983835 0.54145247 0.37961823
-0.013509363 0.36635417 -0.26278365 0.5412303 -0.08950206 0.43470138 0.32417715 -0.20291501
-0.068726115 -0.12002816 0.52231586 0.06918353 -0.30045176 -0.3682583 -0.17950639 -0.13889992

l1.bias f4 [8]
00000000: 5a5d 2b3f f8e4 313f bd94 1e3f 3ec1 2c3f
00000010: 94a6 573f fa1b 183f c28b 2c3f fb4d 143f
0.6693932 0.69490004 0.61945707 0.67482364 0.84238553 0.5941769 0.67400753 0.5793149

l2.weight f4 [8, 8]
00000000: e815 1abf e176 163f fecc 823f bf6a 7d3f
00000010: d006 05bf 0fce 04bf 3064 9f3f d602 07bf
00000020: 1897 063d 3698 9e3f 4cdd e53e 46ed 373e
00000030: e268 f43e 3b68 afbe 84e1 803c 1ca5 bd3d
00000040: 99c8 6bbf 5709 073f afca 133f ad24 583f
00000050: b175 51bc f901 79be 31fb 603f a71d f6be
00000060: 3454 443f 0942 0dbf 1128 223f 815f a43e
00000070: 98ed 603f 95ec 993f 2d05 27be 1a69 613f
00000080: 8b3b 443f e87c 4b3f 5413 093f 329c 273e
00000090: 50da 4bbe 63a9 91bf 1f84 1c3d 2271 d7be
000000a0: 8943 0c3f 451d 8c3f 6cfc 703f a548 35bf
000000b0: 1c92 ac3f d451 fabe 8787 483e 283b c53e
000000c0: 03a5 acbf fd6d f53c 5c77 433f 9073 a93e
000000d0: baa0 2b3f e443 b13e 2e60 a1be 8598 873f
000000e0: 03f6 8539 9766 a33e 929b 6a3f 0894 8b3f
000000f0: 1c88 283f b797 0b3d 0461 8ebf a39a 1cbf
-0.60189676 0.58775145 1.0218809 0.98991007 -0.5196352 -0.5187692 1.245245 -0.527387
0.032858938 1.2390201 0.448954 0.17961606 0.4773627 -0.3425921 0.015732534 0.09260008
-0.9210296 0.52748626 0.57731146 0.8443096 -0.0127844075 -0.24317159 0.8788329 -0.48069498
0.76690984 -0.55178887 0.63342386 0.32104114 0.8786254 1.2025324 -0.16310568 0.88051
0.76653355 0.79487467 0.5354512 0.16368178 -0.19907498 -1.1379818 0.038211938 -0.420785
0.5479055 1.0946432 0.94135165 -0.7081397 1.3482089 -0.48890555 0.1958295 0.38521695
-1.3487858 0.029959673 0.76354 0.3309598 0.67042124 0.3462211 -0.31518692 1.059342
0.0002555103 0.31914207 0.9164363 1.090455 0.65832686 0.034080233 -1.1123357 -0.61173457

l2.bias f4 [8]
00000000: 1e35 173f f284 f1be 4aac 0a3f 8170 173f
00000010: d9cd b9bd 9c71 ba3e a01c 5dbe 5081 9f3e
0.59065425 -0.47171742 0.5416914 0.5915604 -0.090724654 0.36414802 -0.21592951 0.31153345

l3.weight f4 [7, 8]
00000000: 3283 10bf 3101 74bf e7d6 e3be c578 b73e
00000010: 3b76 17bf 21f9 95bf 07da 3e3f 004e 93bf
00000020: 08a0 16bf 4031 f03e 8ba6 a4bf 5e7c 82bf
00000030: 22eb 413f e42d 363f 883c 89bf b91a 9d3e
00000040: 44ad 19bf 1f23 e2be b3b6 30bf a731 073f
00000050: eab1 b1bf a0f4 193f 5d04 cfbf 6acb 79bf
00000060: 6e77 2cbd ba87 febd 89e9 633e a5e6 40bf
00000070: d341 c9bf 8274 8a3e ccfe eb3e b20a 1f3f
00000080: 1dcb 653f 199c aebf 2f8e 363f 049d 48bf
00000090: 3923 83bf a108 3fbf 5328 8fbf ecd4 2abf
000000a0: b55d 06be d342 bebf 830d f3be 3300 fa3e
000000b0: 7cb1 e63d 5aca 82bf f1f5 b4bf 96c0 1d3f
000000c0: ae76 b13e 2fe9 ff3e d172 963e a28b dabf
000000d0: 4eca 783f 6d13 943d 07ac 04bf cb60 b7bd
-0.5645019 -0.9531432 -0.44499895 0.35834327 -0.5916478 -1.1716653 0.74551433 -1.1508179
-0.5883794 0.46912575 -1.2863325 -1.0194204 0.7574941 0.71163774 -1.0721598 0.3068445
-0.6003001 -0.4416742 -0.69028777 0.5281014 -1.388242 0.60138893 -1.6173207 -0.9757601
-0.042106085 -0.124282315 0.22257055 -0.75351936 -1.5723213 0.27042013 0.46092832 0.62125695
0.8976305 -1.3641387 0.71310705 -0.78364587 -1.0245124 -0.7462254 -1.1184181 -0.66731143
-0.13121684 -1.4864143 -0.47471246 0.48828277 0.11264321 -1.0218003 -1.4137555 0.6162199
0.34660858 0.49982592 0.29384473 -1.7073863 0.9718369 0.07230268 -0.5182499 -0.08954009

l3.bias f4 [7]
00000000: 156c d6bc 82e6 b5be 3c7d 003f 5e10 febd
00000010: 131d 05bd b589 d43e 7436 bdbd
-0.026174584 -0.35527426 0.5019109 -0.124054655 -0.03249843 0.41511312 -0.09238902
