data.pth (torch, 5015 bytes, 6 tensors)

l1.weight f4 [8, 54]
00000000: 0920 10bd 283d bbbd a0c4 b93d 74ee f9bd
00000010: 22d2 8d3c 7eba 06be c883 1bbc 3930 8c3c
00000020: a5d0 20bd f6fa 6abd e719 b53c 82e4 433d
00000030: b798 503d e461 5f3d 5d2a ab3d 1600 42bc
00000040: 94cb a2bd 55e4 5d3d c6d0 96bc 04f6 2c3d
00000050: ceb9 c3bd a81f f7bc 1518 dc3c f6a6 cdbd
00000060: a7de 57bd dbed bc3d eb0c 21bd 97ac d1bd
00000070: f087 553d 1280 02be e9fd afbd a49e f6bd
00000080: e8f1 1b3d 69d1 1a3c 32f4 a33d cd0c 9b3d
00000090: 34f0 0f3d 0124 02bd 2c86 613c 161a ec3d
000000a0: dc49 a1bc 801a aa3d 67ef a43d c24a fdbd
000000b0: 75e6 923d 0180 d5bd 1220 bdbb 8144 393d
000000c0: c1d2 c1bd 108a 8cbc 64f7 fcbd 3c9a a73d
000000d0: d9ba e53b 8c81 70bd cdc5 683d 1243 cf3e
000000e0: fd3b 9d3e 58a6 b93e d0d3 bd3e 7f38 133f
000000f0: b03d fb3e 3584 aa3e 1639 663e 6463 6d3e
00000100: 97cc 733e 5b5c d0bc a463 933d 6498 303d
00000110: 86ba f73e f017 77bb 8f46 713d 50a1 1d3f
00000120: 88e6 d5be 9372 093c 1353 603d 8236 1a3e
00000130: f833 193e 7c0a 2ebe 3dcf f23b e5fc 4e3e
00000140: 4e19 d7be de7b 0c3f 19d9 28be d866 603e
00000150: a96a be3e 8ca3 b8bd 790e 053c 5e65 cb3e
00000160: dbd8 183f d143 fdbd d682 80be 6ebb 933e
00000170: c76e ac3e 3d22 a23e a791 ba3e ef95 4abf
00000180: fdd9 d3bd ba7b 923e 048f cf3d b8be f43e
00000190: ff84 13be 2aa7 87bd f3a0 f53d 80c4 22bf
000001a0: d59f 0abe 81d8 16bf 096d ea3e 4e99 bf3e
000001b0: 2de4 893e ce19 a1be 9502 173f 5d24 993d
000001c0: 8f52 d53e 8eb6 fabe 7706 bf3e 3eaa 943e
000001d0: 5bcf f83e 73c5 6f3e 4286 37be db84 533f
000001e0: 870c c43e b6aa 763f 10be dcbc 3c7a 253f
000001f0: 6497 8dbc ca8c fabe 755e d7be 7f19 e8bd
00000200: f40f 473e 3b75 6bbe 42d1 7fbe 5215 eb3e
00000210: f599 383f 7608 8fbd 90e2 dcbe fd49 bbbe
00000220: b494 40be 865c eebe 3116 cabe da06 4c3f
00000230: 3c6d 9a3e 15f3 143f 82b5 bcbd 7ab6 2e3f
00000240: 2d1a 8b3d b6af 0e3f 6648 873e e594 c33e
00000250: b74e 8cbe 41fe 17bf 3038 243f 51ec 51be
00000260: 91f6 6a3f 1be9 2cbe a9f4 b43e cc16 cb3e
00000270: 73c8 b73d 7368 0dbf 6059 293f 4762 96be
00000280: 6d7d b03e daef 8b3e 2f01 603e 34dc 0d3f
00000290: 474d f43d 057b 7cbe 183d bfbd 0e70 5f3f
000002a0: 62fd 273e b0e1 673e 2fcc 8b3e 8fca c13e
000002b0: 451a 7cbe 9c1d 14be b303 2c3e 06b3 123e
000002c0: fbc2 e53e 2901 9abd 2b14 80be 0bf5 5e3f
000002d0: 0d01 d2be df90 07bf 53cc fd3d 9e8c 2cbf
000002e0: 1e91 2cbf ed53 09bf 77b7 353e 20db a8bd
000002f0: 4eec dabe ce38 013f 6732 06be 9d63 ae3e
00000300: ffa2 323f eabc 0b3e ba6f 8fbd b791 b43e
00000310: 3edb 063f 77f7 5ebc 5d0f 36bd 2cd3 773e
00000320: 81fb 953d 729e 683e eaca ec3e af33 14bf
00000330: 5b11 d5bd b878 073f 64ac 5c3e e3c7 e13e
00000340: 5b5e 633e 3dca 633e b5ba a6be 2d4f 30bf
00000350: ac87 e9bc a6d2 dbbe f00e 1a3d 7be3 d93e
00000360: ccda 263f 5f87 6cbe 3a05 debe dcdc 113e
00000370: 8332 b5bd eb8c 4c3e dc41 19be 30d6 c2be
00000380: bbca acbe bc38 bcbe d556 1a3e 6156 3e3e
00000390: bca5 5e3e 3533 833e a9ed 44be 92dd 993d
000003a0: 318c 703d 0523 2d3e e53c f83e 71a3 29be
000003b0: 8849 c03e 24fa 82bd 87b2 38be ad74 913e
000003c0: fc81 bf3d 0043 483d b37e 423f 16eb 02bf
000003d0: 2edd db3e aa2e e9be a544 873c 06cf 253e
000003e0: 79fb 093f 9003 b6be 072b 5fbe b312 073e
000003f0: 0001 143f 9601 8abe d81f 56be 8092 37bb
-0.0351868 -0.09142524 0.09070706 -0.122036844 0.017312113 -0.13157079 -0.009491868 0.017112838
-0.03926148 -0.05736824 0.022107078 0.047825344 0.05092689 0.054536715 0.083576895 -0.011840841
-0.07948986 0.054172833 -0.018410098 0.042226806 -0.09556924 -0.030166462 0.026866952 -0.10041611
-0.052702572 0.09225055 -0.03931896 -0.10237997 0.052131593 -0.12744167 -0.085933514 -0.12041977
0.038072497 0.009449341 0.08005561 0.07570801 0.035141185 -0.031772617 0.013764899 0.11528413
-0.01968854 0.08305836 0.08053475 -0.123677745 0.071728624 -0.104248054 -0.0057716453 0.045231346
-0.09464026 -0.017155677 -0.123518735 0.08183715 0.0070107994 -0.058717296 0.056829263 0.40480858
0.3070983 0.36259723 0.37075663 0.5750808 0.490705 0.3330399 0.22482714 0.23182446
0.23808514 -0.025434664 0.07196739 0.04311408 0.48384494 -0.0037703477 0.05890518 0.6157427
-0.41777444 0.008389133 0.054766726 0.15059856 0.14961231 -0.16996187 0.0074099586 0.20213659
-0.42011493 0.54876506 -0.16489066 0.21914232 0.3719075 -0.09015569 0.008121126 0.39725775
0.59705895 -0.123664506 -0.2509982 0.28853935 0.33678266 0.31666747 0.3643925 -0.7913503
-0.10344312 0.2861002 0.101347 0.47801757 -0.14406203 -0.06623681 0.11993589 -0.63581085
-0.13537534 -0.5892411 0.45786312 0.3742165 0.26931897 -0.31465 0.58988315 0.07477639
0.4166455 -0.48967403 0.3730962 0.29036134 0.485957 0.23415165 -0.17922309 0.82624596
0.38290808 0.96354234 -0.026946098 0.6463964 -0.017284103 -0.4893554 -0.42064252 -0.11332988
0.1943968 -0.22993939 -0.2498217 0.45914704 0.7210992 -0.06984036 -0.43141603 -0.36579886
-0.18806726 -0.46554965 -0.39470056 0.79697955 0.30161464 0.58183414 -0.09214307 0.6824719
0.06792102 0.55736864 0.26422423 0.38199535 -0.27403805 -0.59372336 0.64148235 -0.20500304
0.9178248 -0.16885798 0.3534291 0.3966583 0.089737795 -0.552375 0.66152 -0.29371855
0.34470692 0.2733143 0.21875452 0.5541413 0.11928802 -0.24656303 -0.093378246 0.87280357
0.16405252 0.22644687 0.27304217 0.37849852 -0.24619396 -0.1446442 0.16798286 0.14326105
0.4487532 -0.075197525 -0.25015387 0.87092656 -0.41016427 -0.5295543 0.123924874 -0.67402065
-0.6740893 -0.53643686 0.17745768 -0.0824492 -0.4275841 0.504773 -0.13105164 0.34060374
0.6977996 0.13646284 -0.07003732 0.35267422 0.5267829 -0.013608805 -0.044448245 0.2420165
0.07323361 0.22716692 0.4624856 -0.5789136 -0.10403701 0.5291858 0.21550137 0.44097814
0.22203963 0.22245117 -0.3256432 -0.6887081 -0.028507076 -0.4293415 0.0376119 0.42556366
0.6517761 -0.23098515 -0.43363363 0.14244407 -0.08847525 0.19975631 -0.1496653 -0.38054037
-0.3374842 -0.36762035 0.15072186 0.18587638 0.2174291 0.25625005 -0.19231285 0.07512964
0.058727447 0.1690789 0.4848396 -0.16566254 0.375561 -0.06395367 -0.18036853 0.2840933
0.093509644 0.04889202 0.7597458 -0.5113996 0.42942184 -0.45543414 0.016512224 0.16192254
0.5389934 -0.35549593 -0.21793757 0.13190727 0.57814026 -0.26954335 -0.20910585 -0.0028010905

l1.bias f4 [8]
00000000: fff2 d4bd 321f 7b3f 44a3 fa3e 248e 2c3f
00000010: 21ff 353f 1aa3 2e3f 2816 083f 2076 5b3f
-0.1039791 0.98094475 0.48952687 0.6740439 0.7109242 0.68217623 0.5315881 0.8572712

l2.weight f4 [8, 8]
00000000: b143 abbd b3ba 903f fcfb 8c3f c02e 613f
00000010: 5844 423f 5de7 cc3e 0381 cfbe 4dc0 71bf
00000020: e8fa 2e3d 071f 1fbe a072 e63b b100 abbe
00000030: 75bd 2bbe f7e9 abbe f678 a43d f1b3 9abe
00000040: d32a e1bc d614 1abf ffc7 1ebf 3669 8bbf
00000050: 1438 9a3f a0c9 6d3f 5d7e a43f 8370 b23f
00000060: 413d aabd f18a 673f b708 98bf 449e 853f
00000070: bd5a b0be f31b 94bf 5619 413f 7fc2 003f
00000080: 8dc4 7d3c 50e5 80be c26e 0e3d 08d7 71be
00000090: c5e3 493e eb8f b0be c934 bebd 9d5a 97be
000000a0: 2f74 2dbb 76bd 973e 81b1 43bf adb5 523f
000000b0: 8080 833f 9a6c a63e 7665 363f 40ed 64bf
000000c0: c7da 25be 1dba 0bbe 9f8f 83be 855d 77be
000000d0: 44a8 83be ae8f b83d 9772 10bd 209f 413e
000000e0: 1873 843e 183b cb3f 9402 39be 3e05 723f
000000f0: 8a9e 4fbf 8d97 4abd 38f4 40bf 0704 b33f
-0.083625205 1.1306976 1.10144 0.8796196 0.75885534 0.40020266 -0.40528116 -0.9443405
0.04271975 -0.1553918 0.0070327073 -0.33398965 -0.16771491 -0.3357694 0.08030884 -0.3021541
-0.02748624 -0.60188043 -0.6202392 -1.0891483 1.2048364 0.9288578 1.2851063 1.3940586
-0.083124645 0.9044638 -1.187766 1.0438924 -0.34444228 -1.157103 0.75429285 0.5029678
0.015488756 -0.25174952 0.034773596 -0.23617184 0.19715793 -0.344848 -0.09287412 -0.2956132
-0.0026466956 0.29636735 -0.76442724 0.82308465 1.027359 0.3250473 0.7124857 -0.89424515
-0.16196738 -0.13645215 -0.25695512 -0.24156769 -0.25714314 0.0901178 -0.03526553 0.18908358
0.2586906 1.5877409 -0.1806739 0.9453925 -0.81101286 -0.049460936 -0.7537265 1.3985604

l2.bias f4 [8]
00000000: c033 473f 4a2a 25be a82e d43e b191 df3e
00000010: a207 53be 181c 433d e8ac 75be dc32 043f
0.7781334 -0.16129413 0.41441846 0.4366584 -0.2060838 0.047634214 -0.2399174 0.51640105

l3.weight f4 [7, 8]
00000000: d6d4 623f 19ea 84be 66de 93bf d065 1abf
00000010: 79cb b0be 8bba d1bf fe01 82bd 0d69 b8bf
00000020: 464c 74bf 4b71 ae3e 13ae 8fbf 1b7a 203f
00000030: 1c41 95bd a111 a1bf 0c72 9ebe 859b d33e
00000040: 6e21 afbe 6145 90bd a6fd a6bf 579a ff3e
00000050: 833f d63d 40e0 3b3f 894b 82be f152 bfbe
00000060: d226 33bf 2941 ac3e 1d89 1b3f 404c edbe
00000070: d32a 263e 3f62 b5bf 46f3 343b 47b2 643e
00000080: 9a34 b0bf 7c91 c6bd 5355 4b3f 5ba4 8fbf
00000090: 3aa5 803e 2dd3 0f3e da2e a2be 7fc2 b6bf
000000a0: 32d8 cd3d 7065 483d a2c1 c5bf c3d1 a6bf
000000b0: 416f a7be 00fd b4bf c713 b33e 00f2 0b3f
000000c0: a3bc 393d 1dff 41bc 8026 533e ef6b 95bf
000000d0: 691b 24be 8d06 e73e 17ee 853e 5c8f b0bf
0.8860601 -0.25959852 -1.1552246 -0.60311604 -0.34530237 -1.6385053 -0.06348036 -1.4407059
-0.95428884 0.3407081 -1.1224998 0.6268632 -0.07287809 -1.2583505 -0.30946386 0.4132959
-0.34205192 -0.07044483 -1.3046157 0.4992244 0.10461333 0.73389053 -0.25448254 -0.37367967
-0.6998111 0.33643463 0.60756093 -0.46347237 0.16227274 -1.4170607 0.0027610823 0.22333632
-1.3766053 -0.09695718 0.7942707 -1.1222032 0.25126058 0.14045401 -0.3167637 -1.4278105
0.100510016 0.048924863 -1.5449717 -1.3032764 -0.32702067 -1.413971 0.34976026 0.5466614
0.045345914 -0.011840609 0.20620155 -1.1673564 -0.16026081 0.45122185 0.2615821 -1.379375

l3.bias f4 [7]
00000000: 58db a23e c9f7 34bf 3744 26be f99a 43bd
00000010: 1616 39bf b1df 953c a4dd 05bc
0.3180797 -0.7069059 -0.1623696 -0.047755215 -0.72299325 0.018295141 -0.008170519
