data.pth (torch, 5015 bytes, 6 tensors)

l1.weight f4 [8, 54]
0	0x3e8e3a4b	0.2777885
1	0x3d3f9db1	0.046781246
2	0x3dab74e9	0.08371908
3	0x3e9e6e32	0.30943447
4	0x3dde5cb5	0.10857526
5	0xbe99a8b9	-0.30011538
6	0x3d7688d3	0.06018908
7	0x3dc69754	0.09696832
8	0x3e4370d1	0.19086005
9	0x3d775d48	0.060391694
10	0x3e9203f6	0.28518647
11	0x3f52c1b4	0.8232682
12	0x3de5a728	0.11213523
13	0x3f20fb00	0.62882996
14	0x3ed1d0f4	0.4097973
15	0x3ecedab0	0.4040122
16	0x3f0ac741	0.5421029
17	0xbe995fac	-0.29955804
18	0xbe02907f	-0.12750433
19	0x3f44b7fa	0.76843226
20	0x3e90e4b6	0.28299493
21	0x3f3973ae	0.7244214
22	0x3f3a4b76	0.72771394
23	0x3f3124f3	0.69197005
24	0x3eaed242	0.3414479
25	0x3effab30	0.49935293
26	0xbd83727f	-0.06418323
27	0x3f6f80d7	0.9355597
28	0xbe39b413	-0.18135099
29	0x3f78d207	0.97195476
30	0xbe0081ed	-0.12549563
31	0x3f4c9d1d	0.79927236
32	0x3e364d37	0.17802893
33	0x3e340ed2	0.17583779
34	0x3ea461d3	0.32105884
35	0x3f0df405	0.5545047
36	0x3d77ed5b	0.060529094
37	0x3e8357fb	0.2565306
38	0x3e190e03	0.14946751
39	0x3e2d54ea	0.16926923
40	0xbdbd83a8	-0.09253627
41	0xbe1d68a6	-0.15371951
42	0x3eee3a30	0.4652877
43	0x3ecd1175	0.4005238
44	0x3edb65ab	0.42851004
45	0x3ea6c042	0.32568556
46	0x3f1a4b77	0.602714
47	0x3e9a66af	0.30156466
48	0xbd4afdcd	-0.04955845
49	0xbe322ec9	-0.1740066
50	0x3ee3e9e6	0.44514388
51	0xbe1197e1	-0.14218093
52	0x3c69369a	0.014234209
53	0xbda6e7fe	-0.08149718
54	0xbe6af1d2	-0.2294381
55	0xbd90d076	-0.07071011
56	0x3eb04378	0.34426475
57	0xbe801f9d	-0.2502412
58	0xbde4977e	-0.11161707
59	0x3f37a7f5	0.7174066
60	0x3efce5fb	0.4939421
61	0x3ecd618a	0.4011348
62	0x3f17b6b6	0.5926317
63	0x3ea41d26	0.32053488
64	0xbe7ff9f2	-0.2499769
65	0x3d6a16b7	0.05715057
66	0x3ea4a23a	0.3215502
67	0x3e3ab61d	0.18233533
68	0xbe74a6e3	-0.23891787
69	0xbe90b628	-0.28263974
70	0xbe6e59f8	-0.23276508
71	0x3f673cda	0.9032723
72	0x3ca5523d	0.020180816
73	0xbef6dae9	-0.4821389
74	0xbe7d0842	-0.24710181
75	0xbef6d9a2	-0.48212916
76	0xbef6dfd7	-0.4821765
77	0xbf0043d5	-0.50103503
78	0x3ec7d091	0.3902631
79	0xbe8387ed	-0.2568964
80	0x3ed365ad	0.4128851
81	0xbe28286c	-0.1642167
82	0x3ed6c637	0.419481
83	0xbe20c347	-0.15699492
84	0x3f1d2a13	0.61392325
85	0x3e45002b	0.19238345
86	0xbb1a19da	-0.0023513944
87	0x3f0b002a	0.54297125
88	0xbcafc544	-0.021456368
89	0xbe1c3031	-0.15252759
90	0x3ef26c2b	0.4734815
91	0x3f0c2a74	0.5475228
92	0x3f0e4d66	0.5558685
93	0x3eb395dc	0.3507527
94	0x3f1faf3d	0.6237677
95	0x3e215557	0.15755211
96	0x3eada126	0.3391201
97	0xbe3ce9e3	-0.18448596
98	0x3ea212e2	0.3165503
99	0xbd1c5fc6	-0.038177274
100	0xbf3d3bda	-0.7391945
101	0xbbbf3e06	-0.005836251
102	0x3da379dd	0.07982228
103	0x3ee778e2	0.45209414
104	0xbe40a3b7	-0.18812452
105	0x3e86b873	0.263126
106	0x3ed96291	0.42458013
107	0x3e8383e9	0.25686577
108	0xbdaef625	-0.08543042
109	0x3e9f30b5	0.31091848
110	0x3efb5f31	0.49096063
111	0xbccaac15	-0.024740258
112	0x3eac1bb4	0.33614886
113	0x3d1951a6	0.03743138
114	0x3ee36b0d	0.4441761
115	0x3f099346	0.53740346
116	0x3f36418b	0.7119376
117	0x3ed195c3	0.40934572
118	0xbe4530c9	-0.19256891
119	0x3ecf4ba7	0.40487406
120	0x3f18d898	0.59705496
121	0x3eed9e84	0.4641
122	0x3ed8dac3	0.42354402
123	0x3e279eac	0.16369122
124	0xbe35a109	-0.17737211
125	0x3cb21664	0.021739192
126	0xbe01e7a9	-0.12686028
127	0xbebd52fc	-0.36977375
128	0xbe1db1fe	-0.1539993
129	0xbebd673c	-0.36992824
130	0xbebd6098	-0.36987758
131	0xbe5370b4	-0.20648462
132	0x3ef901ac	0.48634088
133	0xbe6fedbe	-0.23430535
134	0xbe184d54	-0.14873248
135	0x3ec05c85	0.37570587
136	0x3e560d8d	0.20903607
137	0x3ee0118e	0.43763393
138	0xbd8fee09	-0.070278235
139	0x3f01d8e7	0.5072159
140	0xbe1bb107	-0.1520425
141	0x3f156cc3	0.5836908
142	0x3f0da6d4	0.55332685
143	0x3dc9cf4b	0.09853991
144	0x3e4a4c8f	0.19755767
145	0x3f1c1300	0.6096649
146	0x3ee02b7d	0.4378318
147	0x3ee9e18b	0.45679888
148	0xbe50aa9d	-0.20377584
149	0xbe25760e	-0.16158316
150	0x3ea7f013	0.3280035
151	0x3edc0db8	0.42979217
152	0x3f02d9d4	0.5111363
153	0x3ee5eb01	0.44905856
154	0xbf038363	-0.51372355
155	0xbe05a5f7	-0.13051592
156	0xbb392eba	-0.002825661
157	0xbde0c0e6	-0.109742925
158	0x3e932bf1	0.28744462
159	0xbd1039e2	-0.03521145
160	0x3ec27471	0.37979463
161	0x3e13e991	0.14444567
162	0xbdd02bfa	-0.10164638
163	0x3ee3212d	0.4436125
164	0xbda7a7c7	-0.08186298
165	0x3ea9a019	0.33129957
166	0x3ec07784	0.37591183
167	0x3f080e8b	0.5314719
168	0x3d13e80e	0.036109976
169	0xbe0bb2a4	-0.13642365
170	0xbe825d46	-0.25461787
171	0xbd93935e	-0.072058424
172	0x3ef5085e	0.47857946
173	0x3ede9b4b	0.43477854
174	0x3e93a452	0.28836304
175	0x3e98b196	0.29822987
176	0x3eda03f3	0.42581138
177	0x3eaad23d	0.33363524
178	0x3ec380c8	0.3818419
179	0x3f23091b	0.6368577
180	0x3e3a420b	0.18189256
181	0x3f24c4f0	0.64363
182	0xbe3f90e7	-0.1870762
183	0x3f0ceb18	0.55046225
184	0x3f07cb37	0.53044456
185	0x3f0d914c	0.5529983
186	0x3ec3a2d6	0.3821017
187	0x3eedcd70	0.464458
188	0x3e87cfd6	0.26525754
189	0x3f007159	0.50172955
190	0x3e1392e3	0.14411502
191	0x3f013677	0.5047373
192	0x3eccade3	0.39976415
193	0x3ec8490c	0.3911823
194	0x3d0aab9b	0.033855062
195	0xbe929dda	-0.28636056
196	0x3f161ac3	0.58634585
197	0x3e5b4ba4	0.21415573
198	0x3e61d5ba	0.22054186
199	0xbd0fca6c	-0.035105154
200	0xbd7cfdde	-0.061765544
201	0xbd4874ef	-0.04893964
202	0x3ecef4ab	0.40421042
203	0x3b285656	0.0025686226
204	0x3edd2711	0.43193868
205	0x3e9bedbf	0.30454823
206	0x3ec5bc74	0.3862034
207	0x3f1c128f	0.6096582
208	0xbf4977db	-0.7869851
209	0xbd92a554	-0.0716044
210	0x3eb1d940	0.3473606
211	0x3d0ad656	0.033895813
212	0x3eb81926	0.35956687
213	0x3dcefea2	0.10107161
214	0xbd9b8b36	-0.07594912
215	0x3e437f32	0.1909149
216	0x3ec77c9e	0.38962263
217	0x3e875ff3	0.2644039
218	0xbee3ec96	-0.44516438
219	0x3e8796d8	0.26482272
220	0x3e82ed3d	0.25571623
221	0xbe5338dc	-0.20627159
222	0xbdc23357	-0.094824485
223	0xbe33833f	-0.17530535
224	0xbf29e3a0	-0.66362953
225	0xbea7adee	-0.32749885
226	0x3e8c7a86	0.27437228
227	0xbe244456	-0.16041693
228	0xbe12d6ab	-0.14339702
229	0xbece9f8b	-0.40356097
230	0x3d9c3364	0.076269895
231	0x3ade9de7	0.0016984314
232	0x3ea76b18	0.32698894
233	0xbdea3184	-0.114352256
234	0x3e583fd5	0.211181
235	0x3f0f15ce	0.55892646
236	0x3ef2390d	0.4730915
237	0x3ef22ecd	0.4730133
238	0x3f0ca5db	0.54940575
239	0x3ee84807	0.45367453
240	0xbe7543bb	-0.23951618
241	0x3ed106f7	0.40825626
242	0x3eb7ab56	0.35872906
243	0xbe26be64	-0.16283566
244	0xbc923de1	-0.017851772
245	0x3dc840ad	0.09777961
246	0xbc60ac72	-0.013712989
247	0xbec0c23e	-0.37648195
248	0x3e56bc4d	0.20970269
249	0xbe9a38d3	-0.30121478
250	0xbe16a1b2	-0.1471012
251	0xbdc18e3e	-0.09450959
252	0x3d471078	0.04859969
253	0xbef966d6	-0.4871127
254	0xbddd3861	-0.10801769
255	0xbd84b0c1	-0.06479026

l1.bias f4 [8]
0	0x3e992d10	0.29917192
1	0x3ef70140	0.4824314
2	0x3ebd5f74	0.36986887
3	0x3f88c656	1.0685527
4	0x3f3f158f	0.7464227
5	0x3f27e32d	0.6558102
6	0x3ef2fe20	0.47459507
7	0x3eb98f0d	0.36241952

l2.weight f4 [8, 8]
0	0xbe445de6	-0.19176444
1	0xbf709e82	-0.93991864
2	0xbe5f7a6a	-0.21824041
3	0x3daa0bfe	0.083030686
4	0x3f8f3cf3	1.1190475
5	0x3ef090df	0.46985528
6	0x3f3bcd40	0.7336006
7	0x3f77352e	0.9656552
8	0x3f54842f	0.83014196
9	0xbeaec170	-0.34131956
10	0x3f8e910a	1.1138012
11	0x3f584210	0.84475803
12	0xbdb463f5	-0.08808128
13	0x3fa743e6	1.3067596
14	0xbef1c7f3	-0.47222862
15	0xbeab3abc	-0.33443248
16	0x3fc6e15c	1.5537524
17	0xbf8307ad	-1.0236717
18	0xbeeb44d4	-0.4595095
19	0x3eaa578d	0.3326992
20	0x3eb1929e	0.34682173
21	0x3f9684d5	1.1759287
22	0xbe1f9db3	-0.15587501
23	0x3eda0bc5	0.42587104
24	0xbe08ee3e	-0.13372132
25	0x3eaab977	0.33344623
26	0x3f6c9544	0.9241526
27	0xbbfad165	-0.0076543563
28	0xbf4885d4	-0.78329206
29	0x3dc6c237	0.09705012
30	0x3f5ee45f	0.87067217
31	0x3ed37504	0.41300213
32	0xbe930bdb	-0.28719983
33	0x3e1c4709	0.15261473
34	0xbd3d3f11	-0.046202723
35	0xbe36018d	-0.17774029
36	0x3e6ffd76	0.23436531
37	0xbea4eab3	-0.3221031
38	0xbead1103	-0.3380204
39	0x3dc28e43	0.094997905
40	0xbcc0a86c	-0.02351781
41	0x3fa7e8a7	1.3117875
42	0x3fa66bbb	1.3001627
43	0x3fa32d18	1.2748137
44	0xbf7e40cd	-0.9931763
45	0x3f04cb62	0.5187284
46	0x3f2d04ac	0.67585254
47	0xbe603479	-0.21895017
48	0xbd99f9a7	-0.075183205
49	0xbf072224	-0.5278647
50	0xbef8c006	-0.48584002
51	0x3f1b4b0a	0.60661376
52	0x3f8b635d	1.0889698
53	0xbe48c66c	-0.19606942
54	0x3f9c5818	1.2214384
55	0x3fa46483	1.2843174
56	0xbf4b6c2a	-0.7946192
57	0x3d0224aa	0.031773247
58	0xbed9b2ca	-0.42519218
59	0x3f74a665	0.955664
60	0x3f59a58c	0.8501823
61	0x3f054c39	0.5206943
62	0xbf5af112	-0.85524094
63	0xbf052776	-0.5201334

l2.bias f4 [8]
0	0x3ebaef84	0.3651086
1	0xbc19a874	-0.009378541
2	0x3ed4b712	0.41545922
3	0xbebb410a	-0.36573058
4	0xbea4c2f9	-0.32180002
5	0x3ef47d27	0.47751734
6	0x3ec0f20d	0.3768467
7	0x3f3e0932	0.7423278

l3.weight f4 [7, 8]
0	0xbf31b427	-0.69415516
1	0x3eeeda91	0.46651128
2	0x3f3572c9	0.70878273
3	0xbf21299c	-0.62954116
4	0x3e814459	0.25247458
5	0x3e58d244	0.2117396
6	0xbfa0a6b3	-1.2550873
7	0xbf805f30	-1.0029049
8	0xbd4ddc00	-0.050258636
9	0x3d77260c	0.06033902
10	0x3bb2af6a	0.00545304
11	0x3e35b958	0.17746484
12	0x3d34034d	0.04394846
13	0x3e31757b	0.17329971
14	0xbde807d1	-0.11329616
15	0xbf8d2863	-1.102795
16	0xbf64c86e	-0.8936833
17	0xbce52d06	-0.02797557
18	0xbf88389d	-1.0642277
19	0xbfc6d16b	-1.5532659
20	0xbe559566	-0.20857772
21	0x3f0bffc8	0.54687166
22	0xbee98b2b	-0.4561399
23	0x3fa49d4f	1.2860507
24	0x3d345976	0.04403063
25	0x3e90ee1a	0.28306657
26	0x3f3948ab	0.7237651
27	0xbfcfd456	-1.6236675
28	0x3e070245	0.1318446
29	0xbf365f16	-0.7123884
30	0xbeaa1b9d	-0.33224192
31	0x3f678bfa	0.9044796
32	0x3d7de9e2	0.061990626
33	0xbfb950ce	-1.4477785
34	0xbfb46068	-1.4091921
35	0x3f35c91a	0.7100998
36	0x3dd16031	0.10223425
37	0x3e43f529	0.1913649
38	0x3f1c90f5	0.61158687
39	0xbf87c296	-1.0606258
40	0xbf1b2158	-0.60597754
41	0x3f114835	0.56750804
42	0xbfa93f35	-1.3222414
43	0x3f64fd34	0.8944886
44	0x3e07affb	0.13250725
45	0x3f256831	0.6461211
46	0xbfae9233	-1.3638366
47	0xbfdcb0de	-1.7241476
48	0x3e92af13	0.28649196
49	0xbf8296f2	-1.0202315
50	0x3f2979a9	0.66201264
51	0xbfa23aab	-1.2674154
52	0x3d774052	0.060364075
53	0xbfa4e79b	-1.288318
54	0x3f2bb465	0.67072135
55	0xbf317c6c	-0.6933048

l3.bias f4 [7]
0	0xbed9eb99	-0.4256256
1	0xbf0f44a1	-0.55964094
2	0x3eeebe04	0.46629345
3	0xbced039f	-0.02893239
4	0xbd528c4f	-0.05140334
5	0x3f03c39e	0.51470363
6	0x3e5559a5	0.20834978
